----------------------------------------------------------------
        Layer (type)               Output Shape         Param #
================================================================
            Linear-1                 [-1, 1, 5]              30
         LeakyReLU-2                 [-1, 1, 5]               0
           FClayer-3                 [-1, 1, 5]               0
            Linear-4                 [-1, 1, 5]              30
         LeakyReLU-5                 [-1, 1, 5]               0
           FClayer-6                 [-1, 1, 5]               0
            Linear-7                 [-1, 1, 5]              30
         LeakyReLU-8                 [-1, 1, 5]               0
           FClayer-9                 [-1, 1, 5]               0
           Linear-10                 [-1, 1, 5]              30
        LeakyReLU-11                 [-1, 1, 5]               0
          FClayer-12                 [-1, 1, 5]               0
           Linear-13                 [-1, 1, 5]              30
        LeakyReLU-14                 [-1, 1, 5]               0
          FClayer-15                 [-1, 1, 5]               0
           Linear-16                 [-1, 1, 5]              30
        LeakyReLU-17                 [-1, 1, 5]               0
          FClayer-18                 [-1, 1, 5]               0
           Linear-19                 [-1, 1, 3]              18
================================================================
Total params: 198
Trainable params: 198
Non-trainable params: 0
----------------------------------------------------------------
Input size (MB): 0.00
Forward/backward pass size (MB): 0.00
Params size (MB): 0.00
Estimated Total Size (MB): 0.00
----------------------------------------------------------------
2020/11/20 13:44:21
epoch: 1/50 | trn loss: 0.7809 | val loss: 0.4593 | val accuracy: 91.1189% 
…
