----------------------------------------------------------------
        Layer (type)               Output Shape         Param #
================================================================
            Linear-1                 [-1, 1, 5]              30
         LeakyReLU-2                 [-1, 1, 5]               0
           FClayer-3                 [-1, 1, 5]               0
            Linear-4                 [-1, 1, 5]              30
         LeakyReLU-5                 [-1, 1, 5]               0
           FClayer-6                 [-1, 1, 5]               0
            Linear-7                 [-1, 1, 5]              30
         LeakyReLU-8                 [-1, 1, 5]               0
           FClayer-9                 [-1, 1, 5]               0
           Linear-10                 [-1, 1, 3]              18
================================================================
Total params: 108
Trainable params: 108
Non-trainable params: 0
----------------------------------------------------------------
Input size (MB): 0.00
Forward/backward pass size (MB): 0.00
Params size (MB): 0.00
Estimated Total Size (MB): 0.00
----------------------------------------------------------------
2020/11/20 14:01:03
epoch: 1/50 | trn loss: 0.6208 | val loss: 0.2679 | val accuracy: 92.9633% 
…
