----------------------------------------------------------------
        Layer (type)               Output Shape         Param #
================================================================
            Linear-1                [-1, 1, 80]             480
         LeakyReLU-2                [-1, 1, 80]               0
           FClayer-3                [-1, 1, 80]               0
            Linear-4                [-1, 1, 80]           6,480
         LeakyReLU-5                [-1, 1, 80]               0
           FClayer-6                [-1, 1, 80]               0
            Linear-7                [-1, 1, 20]           1,620
         LeakyReLU-8                [-1, 1, 20]               0
           FClayer-9                [-1, 1, 20]               0
           Linear-10                [-1, 1, 20]             420
        LeakyReLU-11                [-1, 1, 20]               0
          FClayer-12                [-1, 1, 20]               0
           Linear-13                [-1, 1, 20]             420
        LeakyReLU-14                [-1, 1, 20]               0
          FClayer-15                [-1, 1, 20]               0
           Linear-16                [-1, 1, 20]             420
        LeakyReLU-17                [-1, 1, 20]               0
          FClayer-18                [-1, 1, 20]               0
           Linear-19                 [-1, 1, 3]              63
================================================================
Total params: 9,903
Trainable params: 9,903
Non-trainable params: 0
----------------------------------------------------------------
Input size (MB): 0.00
Forward/backward pass size (MB): 0.01
Params size (MB): 0.04
Estimated Total Size (MB): 0.04
----------------------------------------------------------------
2020/11/19 21:18:17
epoch: 1/50 | trn loss: 0.1391 | val loss: 0.0481 | val accuracy: 98.5156% 
…
